…
I0601 16:22:21.671365  8514 solver.cpp:77] Creating training net from train_net file: train.prototxt
I0601 16:22:21.676415  8514 net.cpp:51] Initializing net from parameters: 
state {
  phase: TRAIN
  level: 0
  stage: ""
}
layer {
  name: "data"
  type: "Python"
  top: "data"
  top: "label"
  python_param {
    module: "cityscapes_data_layer2"
    layer: "CityscapesDataLayer"
    param_str: "{\'mean_value\': (73.1583, 82.9089, 72.3923), \'root_folder\': \'../../data\', \'suffle\': True, \'batch_size\': 1, \'source\': \'eval_list\', \'seed\': 1337, \'split\': \'train\', \'mirror\': True, \'new_width\': 454, \'new_height\': 454}"
  }
}
layer {
  name: "conv1_1"
  type: "Convolution"
  bottom: "data"
  top: "conv1_1"
  param {
    lr_mult: 1
    decay_mult: 1
  }
  param {
    lr_mult: 2
    decay_mult: 0
  }
  convolution_param {
    num_output: 64
    pad: 100
    kernel_size: 3
    stride: 1
    weight_filler {
      type: "xavier"
    }
    bias_filler {
      type: "constant"
    }
  }
}
layer {
  name: "relu1_1"
  type: "ReLU"
  bottom: "conv1_1"
  top: "conv1_1"
}
layer {
  name: "conv1_2"
  type: "Convolution"
  bottom: "conv1_1"
  top: "conv1_2"
  param {
    lr_mult: 1
    decay_mult: 1
  }
  param {
    lr_mult: 2
    decay_mult: 0
  }
  convolution_param {
    num_output: 64
    pad: 1
    kernel_size: 3
    stride: 1
    weight_filler {
      type: "xavier"
    }
    bias_filler {
      type: "constant"
    }
  }
}
layer {
  name: "relu1_2"
  type: "ReLU"
  bottom: "conv1_2"
  top: "conv1_2"
}
layer {
  name: "pool1"
  type: "Pooling"
  bottom: "conv1_2"
  top: "pool1"
  pooling_param {
    pool: MAX
    kernel_size: 2
    stride: 2
  }
}
layer {
  name: "conv2_1"
  type: "Convolution"
  bottom: "pool1"
  top: "conv2_1"
  param {
    lr_mult: 1
    decay_mult: 1
  }
  param {
    lr_mult: 2
    decay_mult: 0
  }
  convolution_param {
    num_output: 128
    pad: 1
    kernel_size: 3
    stride: 1
    weight_filler {
      type: "xavier"
    }
    bias_filler {
      type: "constant"
    }
  }
}
layer {
  name: "relu2_1"
  type: "ReLU"
  bottom: "conv2_1"
  top: "conv2_1"
}
layer {
  name: "conv2_2"
  type: "Convolution"
  bottom: "conv2_1"
  top: "conv2_2"
  param {
    lr_mult: 1
    decay_mult: 1
  }
  param {
    lr_mult: 2
    decay_mult: 0
  }
  convolution_param {
    num_output: 128
    pad: 1
    kernel_size: 3
    stride: 1
    weight_filler {
      type: "xavier"
    }
    bias_filler {
      type: "constant"
    }
  }
}
layer {
  name: "relu2_2"
  type: "ReLU"
  bottom: "conv2_2"
  top: "conv2_2"
}
layer {
  name: "pool2"
  type: "Pooling"
  bottom: "conv2_2"
  top: "pool2"
  pooling_param {
    pool: MAX
    kernel_size: 2
    stride: 2
  }
}
layer {
  name: "conv3_1"
  type: "Convolution"
  bottom: "pool2"
  top: "conv3_1"
  param {
    lr_mult: 1
    decay_mult: 1
  }
  param {
    lr_mult: 2
    decay_mult: 0
  }
  convolution_param {
    num_output: 256
    pad: 1
    kernel_size: 3
    stride: 1
    weight_filler {
      type: "xavier"
    }
    bias_filler {
      type: "constant"
    }
  }
}
layer {
  name: "relu3_1"
  type: "ReLU"
  bottom: "conv3_1"
  top: "conv3_1"
}
layer {
  name: "conv3_2"
  type: "Convolution"
  bottom: "conv3_1"
  top: "conv3_2"
  param {
    lr_mult: 1
    decay_mult: 1
  }
  param {
    lr_mult: 2
    decay_mult: 0
  }
  convolution_param {
    num_output: 256
    pad: 1
    kernel_size: 3
    stride: 1
    weight_filler {
      type: "xavier"
    }
    bias_filler {
      type: "constant"
    }
  }
}
layer {
  name: "relu3_2"
  type: "ReLU"
  bottom: "conv3_2"
  top: "conv3_2"
}
layer {
  name: "conv3_3"
  type: "Convolution"
  bottom: "conv3_2"
  top: "conv3_3"
  param {
    lr_mult: 1
    decay_mult: 1
  }
  param {
    lr_mult: 2
    decay_mult: 0
  }
  convolution_param {
    num_output: 256
    pad: 1
    kernel_size: 3
    stride: 1
    weight_filler {
      type: "xavier"
    }
    bias_filler {
      type: "constant"
    }
  }
}
layer {
  name: "relu3_3"
  type: "ReLU"
  bottom: "conv3_3"
  top: "conv3_3"
}
layer {
  name: "pool3"
  type: "Pooling"
  bottom: "conv3_3"
  top: "pool3"
  pooling_param {
    pool: MAX
    kernel_size: 2
    stride: 2
  }
}
layer {
  name: "conv4_1"
  type: "Convolution"
  bottom: "pool3"
  top: "conv4_1"
  param {
    lr_mult: 1
    decay_mult: 1
  }
  param {
    lr_mult: 2
    decay_mult: 0
  }
  convolution_param {
    num_output: 512
    pad: 1
    kernel_size: 3
    stride: 1
    weight_filler {
      type: "xavier"
    }
    bias_filler {
      type: "constant"
    }
  }
}
layer {
  name: "relu4_1"
  type: "ReLU"
  bottom: "conv4_1"
  top: "conv4_1"
}
layer {
  name: "conv4_2"
  type: "Convolution"
  bottom: "conv4_1"
  top: "conv4_2"
  param {
    lr_mult: 1
    decay_mult: 1
  }
  param {
    lr_mult: 2
    decay_mult: 0
  }
  convolution_param {
    num_output: 512
    pad: 1
    kernel_size: 3
    stride: 1
    weight_filler {
      type: "xavier"
    }
    bias_filler {
      type: "constant"
    }
  }
}
layer {
  name: "relu4_2"
  type: "ReLU"
  bottom: "conv4_2"
  top: "conv4_2"
}
layer {
  name: "conv4_3"
  type: "Convolution"
  bottom: "conv4_2"
  top: "conv4_3"
  param {
    lr_mult: 1
    decay_mult: 1
  }
  param {
    lr_mult: 2
    decay_mult: 0
  }
  convolution_param {
    num_output: 512
    pad: 1
    kernel_size: 3
    stride: 1
    weight_filler {
      type: "xavier"
    }
    bias_filler {
      type: "constant"
    }
  }
}
layer {
  name: "relu4_3"
  type: "ReLU"
  bottom: "conv4_3"
  top: "conv4_3"
}
layer {
  name: "pool4"
  type: "Pooling"
  bottom: "conv4_3"
  top: "pool4"
  pooling_param {
    pool: MAX
    kernel_size: 2
    stride: 2
  }
}
layer {
  name: "conv5_1"
  type: "Convolution"
  bottom: "pool4"
  top: "conv5_1"
  param {
    lr_mult: 1
    decay_mult: 1
  }
  param {
    lr_mult: 2
    decay_mult: 0
  }
  convolution_param {
    num_output: 512
    pad: 1
    kernel_size: 3
    stride: 1
    weight_filler {
      type: "xavier"
    }
    bias_filler {
      type: "constant"
    }
  }
}
layer {
  name: "relu5_1"
  type: "ReLU"
  bottom: "conv5_1"
  top: "conv5_1"
}
layer {
  name: "conv5_2"
  type: "Convolution"
  bottom: "conv5_1"
  top: "conv5_2"
  param {
    lr_mult: 1
    decay_mult: 1
  }
  param {
    lr_mult: 2
    decay_mult: 0
  }
  convolution_param {
    num_output: 512
    pad: 1
    kernel_size: 3
    stride: 1
    weight_filler {
      type: "xavier"
    }
    bias_filler {
      type: "constant"
    }
  }
}
layer {
  name: "relu5_2"
  type: "ReLU"
  bottom: "conv5_2"
  top: "conv5_2"
}
layer {
  name: "conv5_3"
  type: "Convolution"
  bottom: "conv5_2"
  top: "conv5_3"
  param {
    lr_mult: 1
    decay_mult: 1
  }
  param {
    lr_mult: 2
    decay_mult: 0
  }
  convolution_param {
    num_output: 512
    pad: 1
    kernel_size: 3
    stride: 1
    weight_filler {
      type: "xavier"
    }
    bias_filler {
      type: "constant"
    }
  }
}
layer {
  name: "relu5_3"
  type: "ReLU"
  bottom: "conv5_3"
  top: "conv5_3"
}
layer {
  name: "pool5"
  type: "Pooling"
  bottom: "conv5_3"
  top: "pool5"
  pooling_param {
    pool: MAX
    kernel_size: 2
    stride: 2
  }
}
layer {
  name: "fc6"
  type: "Convolution"
  bottom: "pool5"
  top: "fc6"
  param {
    lr_mult: 1
    decay_mult: 1
  }
  param {
    lr_mult: 2
    decay_mult: 0
  }
  convolution_param {
    num_output: 4096
    pad: 0
    kernel_size: 7
    stride: 1
    weight_filler {
      type: "xavier"
    }
    bias_filler {
      type: "constant"
    }
  }
}
layer {
  name: "relu6"
  type: "ReLU"
  bottom: "fc6"
  top: "fc6"
}
layer {
  name: "drop6"
  type: "Dropout"
  bottom: "fc6"
  top: "fc6"
  dropout_param {
    dropout_ratio: 0.5
  }
}
layer {
  name: "fc7"
  type: "Convolution"
  bottom: "fc6"
  top: "fc7"
  param {
    lr_mult: 1
    decay_mult: 1
  }
  param {
    lr_mult: 2
    decay_mult: 0
  }
  convolution_param {
    num_output: 4096
    pad: 0
    kernel_size: 1
    stride: 1
    weight_filler {
      type: "xavier"
    }
    bias_filler {
      type: "constant"
    }
  }
}
layer {
  name: "relu7"
  type: "ReLU"
  bottom: "fc7"
  top: "fc7"
}
layer {
  name: "drop7"
  type: "Dropout"
  bottom: "fc7"
  top: "fc7"
  dropout_param {
    dropout_ratio: 0.5
  }
}
layer {
  name: "score_fr"
  type: "Convolution"
  bottom: "fc7"
  top: "score_fr"
  param {
    lr_mult: 1
    decay_mult: 1
  }
  param {
    lr_mult: 2
    decay_mult: 0
  }
  convolution_param {
    num_output: 34
    pad: 0
    kernel_size: 1
    weight_filler {
      type: "xavier"
    }
    bias_filler {
      type: "constant"
    }
  }
}
layer {
  name: "upscore2"
  type: "Deconvolution"
  bottom: "score_fr"
  top: "upscore2"
  param {
    lr_mult: 0
  }
  convolution_param {
    num_output: 34
    bias_term: false
    kernel_size: 4
    stride: 2
    weight_filler {
      type: "xavier"
    }
    bias_filler {
      type: "constant"
    }
  }
}
layer {
  name: "score_pool4"
  type: "Convolution"
  bottom: "pool4"
  top: "score_pool4"
  param {
    lr_mult: 1
    decay_mult: 1
  }
  param {
    lr_mult: 2
    decay_mult: 0
  }
  convolution_param {
    num_output: 34
    pad: 0
    kernel_size: 1
    weight_filler {
      type: "xavier"
    }
    bias_filler {
      type: "constant"
    }
  }
}
layer {
  name: "score_pool4c"
  type: "Crop"
  bottom: "score_pool4"
  bottom: "upscore2"
  top: "score_pool4c"
  crop_param {
    axis: 2
    offset: 5
  }
}
layer {
  name: "fuse_pool4"
  type: "Eltwise"
  bottom: "upscore2"
  bottom: "score_pool4c"
  top: "fuse_pool4"
  eltwise_param {
    operation: SUM
  }
}
layer {
  name: "upscore_pool4"
  type: "Deconvolution"
  bottom: "fuse_pool4"
  top: "upscore_pool4"
  param {
    lr_mult: 0
  }
  convolution_param {
    num_output: 34
    bias_term: false
    kernel_size: 4
    stride: 2
    weight_filler {
      type: "xavier"
    }
    bias_filler {
      type: "constant"
    }
  }
}
layer {
  name: "score_pool3"
  type: "Convolution"
  bottom: "pool3"
  top: "score_pool3"
  param {
    lr_mult: 1
    decay_mult: 1
  }
  param {
    lr_mult: 2
    decay_mult: 0
  }
  convolution_param {
    num_output: 34
    pad: 0
    kernel_size: 1
    weight_filler {
      type: "xavier"
    }
    bias_filler {
      type: "constant"
    }
  }
}
layer {
  name: "score_pool3c"
  type: "Crop"
  bottom: "score_pool3"
  bottom: "upscore_pool4"
  top: "score_pool3c"
  crop_param {
    axis: 2
    offset: 9
  }
}
layer {
  name: "fuse_pool3"
  type: "Eltwise"
  bottom: "upscore_pool4"
  bottom: "score_pool3c"
  top: "fuse_pool3"
  eltwise_param {
    operation: SUM
  }
}
layer {
  name: "upscore8"
  type: "Deconvolution"
  bottom: "fuse_pool3"
  top: "upscore8"
  param {
    lr_mult: 0
  }
  convolution_param {
    num_output: 34
    bias_term: false
    kernel_size: 16
    stride: 8
    weight_filler {
      type: "xavier"
    }
    bias_filler {
      type: "constant"
    }
  }
}
layer {
  name: "score"
  type: "Crop"
  bottom: "upscore8"
  bottom: "data"
  top: "score"
  crop_param {
    axis: 2
    offset: 31
  }
}
layer {
  name: "loss"
  type: "SoftmaxWithLoss"
  bottom: "score"
  bottom: "label"
  top: "loss"
  loss_param {
    ignore_label: 255
    normalize: false
  }
}
layer {
  name: "accuracy"
  type: "Accuracy"
  bottom: "score"
  bottom: "label"
  top: "accuracy"
}
I0601 16:22:21.677161  8514 layer_factory.hpp:77] Creating layer data
I0601 16:22:26.869210  8514 net.cpp:84] Creating Layer data
I0601 16:22:26.869366  8514 net.cpp:380] data -> data
I0601 16:22:26.869511  8514 net.cpp:380] data -> label
I0601 16:22:28.057224  8514 net.cpp:122] Setting up data
I0601 16:22:28.057385  8514 net.cpp:129] Top shape: 1 3 454 454 (618348)
I0601 16:22:28.057435  8514 net.cpp:129] Top shape: 1 1 454 454 (206116)
I0601 16:22:28.057482  8514 net.cpp:137] Memory required for data: 3297856
I0601 16:22:28.063392  8514 layer_factory.hpp:77] Creating layer data_data_0_split
I0601 16:22:28.089016  8514 net.cpp:84] Creating Layer data_data_0_split
I0601 16:22:28.089037  8514 net.cpp:406] data_data_0_split <- data
I0601 16:22:28.089061  8514 net.cpp:380] data_data_0_split -> data_data_0_split_0
I0601 16:22:28.089081  8514 net.cpp:380] data_data_0_split -> data_data_0_split_1
I0601 16:22:28.089169  8514 net.cpp:122] Setting up data_data_0_split
I0601 16:22:28.089186  8514 net.cpp:129] Top shape: 1 3 454 454 (618348)
I0601 16:22:28.089196  8514 net.cpp:129] Top shape: 1 3 454 454 (618348)
I0601 16:22:28.089203  8514 net.cpp:137] Memory required for data: 8244640
I0601 16:22:28.089213  8514 layer_factory.hpp:77] Creating layer label_data_1_split
I0601 16:22:28.089226  8514 net.cpp:84] Creating Layer label_data_1_split
I0601 16:22:28.089234  8514 net.cpp:406] label_data_1_split <- label
I0601 16:22:28.089244  8514 net.cpp:380] label_data_1_split -> label_data_1_split_0
I0601 16:22:28.089258  8514 net.cpp:380] label_data_1_split -> label_data_1_split_1
I0601 16:22:28.089306  8514 net.cpp:122] Setting up label_data_1_split
I0601 16:22:28.089319  8514 net.cpp:129] Top shape: 1 1 454 454 (206116)
I0601 16:22:28.089329  8514 net.cpp:129] Top shape: 1 1 454 454 (206116)
I0601 16:22:28.089336  8514 net.cpp:137] Memory required for data: 9893568
I0601 16:22:28.089344  8514 layer_factory.hpp:77] Creating layer conv1_1
I0601 16:22:28.089421  8514 net.cpp:84] Creating Layer conv1_1
I0601 16:22:28.089435  8514 net.cpp:406] conv1_1 <- data_data_0_split_0
I0601 16:22:28.089448  8514 net.cpp:380] conv1_1 -> conv1_1
I0601 16:22:28.094853  8514 net.cpp:122] Setting up conv1_1
I0601 16:22:28.094915  8514 net.cpp:129] Top shape: 1 64 652 652 (27206656)
I0601 16:22:28.094947  8514 net.cpp:137] Memory required for data: 118720192
I0601 16:22:28.095034  8514 layer_factory.hpp:77] Creating layer relu1_1
I0601 16:22:28.095103  8514 net.cpp:84] Creating Layer relu1_1
I0601 16:22:28.095147  8514 net.cpp:406] relu1_1 <- conv1_1
I0601 16:22:28.095181  8514 net.cpp:367] relu1_1 -> conv1_1 (in-place)
I0601 16:22:28.095494  8514 net.cpp:122] Setting up relu1_1
I0601 16:22:28.095548  8514 net.cpp:129] Top shape: 1 64 652 652 (27206656)
I0601 16:22:28.095592  8514 net.cpp:137] Memory required for data: 227546816
I0601 16:22:28.095620  8514 layer_factory.hpp:77] Creating layer conv1_2
I0601 16:22:28.095664  8514 net.cpp:84] Creating Layer conv1_2
I0601 16:22:28.095698  8514 net.cpp:406] conv1_2 <- conv1_1
I0601 16:22:28.095733  8514 net.cpp:380] conv1_2 -> conv1_2
I0601 16:22:28.098865  8514 net.cpp:122] Setting up conv1_2
I0601 16:22:28.098922  8514 net.cpp:129] Top shape: 1 64 652 652 (27206656)
I0601 16:22:28.098953  8514 net.cpp:137] Memory required for data: 336373440
I0601 16:22:28.098994  8514 layer_factory.hpp:77] Creating layer relu1_2
I0601 16:22:28.099027  8514 net.cpp:84] Creating Layer relu1_2
I0601 16:22:28.099059  8514 net.cpp:406] relu1_2 <- conv1_2
I0601 16:22:28.099092  8514 net.cpp:367] relu1_2 -> conv1_2 (in-place)
I0601 16:22:28.099125  8514 net.cpp:122] Setting up relu1_2
I0601 16:22:28.099158  8514 net.cpp:129] Top shape: 1 64 652 652 (27206656)
I0601 16:22:28.099189  8514 net.cpp:137] Memory required for data: 445200064
I0601 16:22:28.099215  8514 layer_factory.hpp:77] Creating layer pool1
I0601 16:22:28.099254  8514 net.cpp:84] Creating Layer pool1
I0601 16:22:28.099287  8514 net.cpp:406] pool1 <- conv1_2
I0601 16:22:28.099318  8514 net.cpp:380] pool1 -> pool1
I0601 16:22:28.099985  8514 net.cpp:122] Setting up pool1
I0601 16:22:28.100039  8514 net.cpp:129] Top shape: 1 64 326 326 (6801664)
I0601 16:22:28.100073  8514 net.cpp:137] Memory required for data: 472406720
I0601 16:22:28.100101  8514 layer_factory.hpp:77] Creating layer conv2_1
I0601 16:22:28.100144  8514 net.cpp:84] Creating Layer conv2_1
I0601 16:22:28.100175  8514 net.cpp:406] conv2_1 <- pool1
I0601 16:22:28.100214  8514 net.cpp:380] conv2_1 -> conv2_1
I0601 16:22:28.102298  8514 net.cpp:122] Setting up conv2_1
I0601 16:22:28.102350  8514 net.cpp:129] Top shape: 1 128 326 326 (13603328)
I0601 16:22:28.102392  8514 net.cpp:137] Memory required for data: 526820032
I0601 16:22:28.102435  8514 layer_factory.hpp:77] Creating layer relu2_1
I0601 16:22:28.102468  8514 net.cpp:84] Creating Layer relu2_1
I0601 16:22:28.102496  8514 net.cpp:406] relu2_1 <- conv2_1
I0601 16:22:28.102530  8514 net.cpp:367] relu2_1 -> conv2_1 (in-place)
I0601 16:22:28.102563  8514 net.cpp:122] Setting up relu2_1
I0601 16:22:28.102596  8514 net.cpp:129] Top shape: 1 128 326 326 (13603328)
I0601 16:22:28.102625  8514 net.cpp:137] Memory required for data: 581233344
I0601 16:22:28.102653  8514 layer_factory.hpp:77] Creating layer conv2_2
I0601 16:22:28.102687  8514 net.cpp:84] Creating Layer conv2_2
I0601 16:22:28.102716  8514 net.cpp:406] conv2_2 <- conv2_1
I0601 16:22:28.102754  8514 net.cpp:380] conv2_2 -> conv2_2
I0601 16:22:28.105765  8514 net.cpp:122] Setting up conv2_2
I0601 16:22:28.114385  8514 net.cpp:129] Top shape: 1 128 326 326 (13603328)
I0601 16:22:28.114423  8514 net.cpp:137] Memory required for data: 635646656
I0601 16:22:28.114464  8514 layer_factory.hpp:77] Creating layer relu2_2
I0601 16:22:28.114500  8514 net.cpp:84] Creating Layer relu2_2
I0601 16:22:28.114528  8514 net.cpp:406] relu2_2 <- conv2_2
I0601 16:22:28.114562  8514 net.cpp:367] relu2_2 -> conv2_2 (in-place)
I0601 16:22:28.114595  8514 net.cpp:122] Setting up relu2_2
I0601 16:22:28.114627  8514 net.cpp:129] Top shape: 1 128 326 326 (13603328)
I0601 16:22:28.114653  8514 net.cpp:137] Memory required for data: 690059968
I0601 16:22:28.114683  8514 layer_factory.hpp:77] Creating layer pool2
I0601 16:22:28.114713  8514 net.cpp:84] Creating Layer pool2
I0601 16:22:28.114742  8514 net.cpp:406] pool2 <- conv2_2
I0601 16:22:28.114773  8514 net.cpp:380] pool2 -> pool2
I0601 16:22:28.114856  8514 net.cpp:122] Setting up pool2
I0601 16:22:28.114897  8514 net.cpp:129] Top shape: 1 128 163 163 (3400832)
I0601 16:22:28.114925  8514 net.cpp:137] Memory required for data: 703663296
I0601 16:22:28.114959  8514 layer_factory.hpp:77] Creating layer conv3_1
I0601 16:22:28.114995  8514 net.cpp:84] Creating Layer conv3_1
I0601 16:22:28.115025  8514 net.cpp:406] conv3_1 <- pool2
I0601 16:22:28.115056  8514 net.cpp:380] conv3_1 -> conv3_1
I0601 16:22:28.119928  8514 net.cpp:122] Setting up conv3_1
I0601 16:22:28.128386  8514 net.cpp:129] Top shape: 1 256 163 163 (6801664)
I0601 16:22:28.128423  8514 net.cpp:137] Memory required for data: 730869952
I0601 16:22:28.128464  8514 layer_factory.hpp:77] Creating layer relu3_1
I0601 16:22:28.128505  8514 net.cpp:84] Creating Layer relu3_1
I0601 16:22:28.128535  8514 net.cpp:406] relu3_1 <- conv3_1
I0601 16:22:28.128566  8514 net.cpp:367] relu3_1 -> conv3_1 (in-place)
I0601 16:22:28.128602  8514 net.cpp:122] Setting up relu3_1
I0601 16:22:28.128633  8514 net.cpp:129] Top shape: 1 256 163 163 (6801664)
I0601 16:22:28.128659  8514 net.cpp:137] Memory required for data: 758076608
I0601 16:22:28.128686  8514 layer_factory.hpp:77] Creating layer conv3_2
I0601 16:22:28.128726  8514 net.cpp:84] Creating Layer conv3_2
I0601 16:22:28.128756  8514 net.cpp:406] conv3_2 <- conv3_1
I0601 16:22:28.128790  8514 net.cpp:380] conv3_2 -> conv3_2
I0601 16:22:28.156270  8514 net.cpp:122] Setting up conv3_2
I0601 16:22:28.156325  8514 net.cpp:129] Top shape: 1 256 163 163 (6801664)
I0601 16:22:28.156355  8514 net.cpp:137] Memory required for data: 785283264
I0601 16:22:28.156395  8514 layer_factory.hpp:77] Creating layer relu3_2
I0601 16:22:28.156436  8514 net.cpp:84] Creating Layer relu3_2
I0601 16:22:28.156466  8514 net.cpp:406] relu3_2 <- conv3_2
I0601 16:22:28.156497  8514 net.cpp:367] relu3_2 -> conv3_2 (in-place)
I0601 16:22:28.156540  8514 net.cpp:122] Setting up relu3_2
I0601 16:22:28.156572  8514 net.cpp:129] Top shape: 1 256 163 163 (6801664)
I0601 16:22:28.156600  8514 net.cpp:137] Memory required for data: 812489920
I0601 16:22:28.156635  8514 layer_factory.hpp:77] Creating layer conv3_3
I0601 16:22:28.156674  8514 net.cpp:84] Creating Layer conv3_3
I0601 16:22:28.156715  8514 net.cpp:406] conv3_3 <- conv3_2
I0601 16:22:28.156759  8514 net.cpp:380] conv3_3 -> conv3_3
I0601 16:22:28.174286  8514 net.cpp:122] Setting up conv3_3
I0601 16:22:28.191385  8514 net.cpp:129] Top shape: 1 256 163 163 (6801664)
I0601 16:22:28.191422  8514 net.cpp:137] Memory required for data: 839696576
I0601 16:22:28.191465  8514 layer_factory.hpp:77] Creating layer relu3_3
I0601 16:22:28.191498  8514 net.cpp:84] Creating Layer relu3_3
I0601 16:22:28.191536  8514 net.cpp:406] relu3_3 <- conv3_3
I0601 16:22:28.191570  8514 net.cpp:367] relu3_3 -> conv3_3 (in-place)
I0601 16:22:28.191606  8514 net.cpp:122] Setting up relu3_3
I0601 16:22:28.191637  8514 net.cpp:129] Top shape: 1 256 163 163 (6801664)
I0601 16:22:28.191666  8514 net.cpp:137] Memory required for data: 866903232
I0601 16:22:28.191694  8514 layer_factory.hpp:77] Creating layer pool3
I0601 16:22:28.191725  8514 net.cpp:84] Creating Layer pool3
I0601 16:22:28.191756  8514 net.cpp:406] pool3 <- conv3_3
I0601 16:22:28.191787  8514 net.cpp:380] pool3 -> pool3
I0601 16:22:28.191869  8514 net.cpp:122] Setting up pool3
I0601 16:22:28.191907  8514 net.cpp:129] Top shape: 1 256 82 82 (1721344)
I0601 16:22:28.191936  8514 net.cpp:137] Memory required for data: 873788608
I0601 16:22:28.191963  8514 layer_factory.hpp:77] Creating layer pool3_pool3_0_split
I0601 16:22:28.192000  8514 net.cpp:84] Creating Layer pool3_pool3_0_split
I0601 16:22:28.192029  8514 net.cpp:406] pool3_pool3_0_split <- pool3
I0601 16:22:28.192062  8514 net.cpp:380] pool3_pool3_0_split -> pool3_pool3_0_split_0
I0601 16:22:28.192101  8514 net.cpp:380] pool3_pool3_0_split -> pool3_pool3_0_split_1
I0601 16:22:28.192176  8514 net.cpp:122] Setting up pool3_pool3_0_split
I0601 16:22:28.192214  8514 net.cpp:129] Top shape: 1 256 82 82 (1721344)
I0601 16:22:28.192246  8514 net.cpp:129] Top shape: 1 256 82 82 (1721344)
I0601 16:22:28.192275  8514 net.cpp:137] Memory required for data: 887559360
I0601 16:22:28.192304  8514 layer_factory.hpp:77] Creating layer conv4_1
I0601 16:22:28.192347  8514 net.cpp:84] Creating Layer conv4_1
I0601 16:22:28.192384  8514 net.cpp:406] conv4_1 <- pool3_pool3_0_split_0
I0601 16:22:28.192421  8514 net.cpp:380] conv4_1 -> conv4_1
I0601 16:22:28.238410  8514 net.cpp:122] Setting up conv4_1
I0601 16:22:28.255632  8514 net.cpp:129] Top shape: 1 512 82 82 (3442688)
I0601 16:22:28.255671  8514 net.cpp:137] Memory required for data: 901330112
I0601 16:22:28.255709  8514 layer_factory.hpp:77] Creating layer relu4_1
I0601 16:22:28.255744  8514 net.cpp:84] Creating Layer relu4_1
I0601 16:22:28.255774  8514 net.cpp:406] relu4_1 <- conv4_1
I0601 16:22:28.255808  8514 net.cpp:367] relu4_1 -> conv4_1 (in-place)
I0601 16:22:28.255842  8514 net.cpp:122] Setting up relu4_1
I0601 16:22:28.255875  8514 net.cpp:129] Top shape: 1 512 82 82 (3442688)
I0601 16:22:28.255904  8514 net.cpp:137] Memory required for data: 915100864
I0601 16:22:28.255933  8514 layer_factory.hpp:77] Creating layer conv4_2
I0601 16:22:28.255970  8514 net.cpp:84] Creating Layer conv4_2
I0601 16:22:28.256001  8514 net.cpp:406] conv4_2 <- conv4_1
I0601 16:22:28.256036  8514 net.cpp:380] conv4_2 -> conv4_2
I0601 16:22:28.346205  8514 net.cpp:122] Setting up conv4_2
I0601 16:22:28.363392  8514 net.cpp:129] Top shape: 1 512 82 82 (3442688)
I0601 16:22:28.363433  8514 net.cpp:137] Memory required for data: 928871616
I0601 16:22:28.363483  8514 layer_factory.hpp:77] Creating layer relu4_2
I0601 16:22:28.363523  8514 net.cpp:84] Creating Layer relu4_2
I0601 16:22:28.363554  8514 net.cpp:406] relu4_2 <- conv4_2
I0601 16:22:28.363587  8514 net.cpp:367] relu4_2 -> conv4_2 (in-place)
I0601 16:22:28.363622  8514 net.cpp:122] Setting up relu4_2
I0601 16:22:28.363654  8514 net.cpp:129] Top shape: 1 512 82 82 (3442688)
I0601 16:22:28.363683  8514 net.cpp:137] Memory required for data: 942642368
I0601 16:22:28.363713  8514 layer_factory.hpp:77] Creating layer conv4_3
I0601 16:22:28.363749  8514 net.cpp:84] Creating Layer conv4_3
I0601 16:22:28.363780  8514 net.cpp:406] conv4_3 <- conv4_2
I0601 16:22:28.363828  8514 net.cpp:380] conv4_3 -> conv4_3
I0601 16:22:28.455211  8514 net.cpp:122] Setting up conv4_3
I0601 16:22:28.473392  8514 net.cpp:129] Top shape: 1 512 82 82 (3442688)
I0601 16:22:28.473434  8514 net.cpp:137] Memory required for data: 956413120
I0601 16:22:28.473484  8514 layer_factory.hpp:77] Creating layer relu4_3
I0601 16:22:28.473526  8514 net.cpp:84] Creating Layer relu4_3
I0601 16:22:28.473573  8514 net.cpp:406] relu4_3 <- conv4_3
I0601 16:22:28.473609  8514 net.cpp:367] relu4_3 -> conv4_3 (in-place)
I0601 16:22:28.473646  8514 net.cpp:122] Setting up relu4_3
I0601 16:22:28.473680  8514 net.cpp:129] Top shape: 1 512 82 82 (3442688)
I0601 16:22:28.473707  8514 net.cpp:137] Memory required for data: 970183872
I0601 16:22:28.473736  8514 layer_factory.hpp:77] Creating layer pool4
I0601 16:22:28.473773  8514 net.cpp:84] Creating Layer pool4
I0601 16:22:28.473803  8514 net.cpp:406] pool4 <- conv4_3
I0601 16:22:28.473840  8514 net.cpp:380] pool4 -> pool4
I0601 16:22:28.473943  8514 net.cpp:122] Setting up pool4
I0601 16:22:28.473986  8514 net.cpp:129] Top shape: 1 512 41 41 (860672)
I0601 16:22:28.474016  8514 net.cpp:137] Memory required for data: 973626560
I0601 16:22:28.474048  8514 layer_factory.hpp:77] Creating layer pool4_pool4_0_split
I0601 16:22:28.474083  8514 net.cpp:84] Creating Layer pool4_pool4_0_split
I0601 16:22:28.474113  8514 net.cpp:406] pool4_pool4_0_split <- pool4
I0601 16:22:28.474148  8514 net.cpp:380] pool4_pool4_0_split -> pool4_pool4_0_split_0
I0601 16:22:28.474187  8514 net.cpp:380] pool4_pool4_0_split -> pool4_pool4_0_split_1
I0601 16:22:28.474275  8514 net.cpp:122] Setting up pool4_pool4_0_split
I0601 16:22:28.474318  8514 net.cpp:129] Top shape: 1 512 41 41 (860672)
I0601 16:22:28.474350  8514 net.cpp:129] Top shape: 1 512 41 41 (860672)
I0601 16:22:28.474386  8514 net.cpp:137] Memory required for data: 980511936
I0601 16:22:28.474418  8514 layer_factory.hpp:77] Creating layer conv5_1
I0601 16:22:28.474470  8514 net.cpp:84] Creating Layer conv5_1
I0601 16:22:28.474501  8514 net.cpp:406] conv5_1 <- pool4_pool4_0_split_0
I0601 16:22:28.474539  8514 net.cpp:380] conv5_1 -> conv5_1
I0601 16:22:28.582485  8514 net.cpp:122] Setting up conv5_1
I0601 16:22:28.582542  8514 net.cpp:129] Top shape: 1 512 41 41 (860672)
I0601 16:22:28.582574  8514 net.cpp:137] Memory required for data: 983954624
I0601 16:22:28.582612  8514 layer_factory.hpp:77] Creating layer relu5_1
I0601 16:22:28.582645  8514 net.cpp:84] Creating Layer relu5_1
I0601 16:22:28.582675  8514 net.cpp:406] relu5_1 <- conv5_1
I0601 16:22:28.582710  8514 net.cpp:367] relu5_1 -> conv5_1 (in-place)
I0601 16:22:28.582752  8514 net.cpp:122] Setting up relu5_1
I0601 16:22:28.582787  8514 net.cpp:129] Top shape: 1 512 41 41 (860672)
I0601 16:22:28.582815  8514 net.cpp:137] Memory required for data: 987397312
I0601 16:22:28.582844  8514 layer_factory.hpp:77] Creating layer conv5_2
I0601 16:22:28.582893  8514 net.cpp:84] Creating Layer conv5_2
I0601 16:22:28.582924  8514 net.cpp:406] conv5_2 <- conv5_1
I0601 16:22:28.582963  8514 net.cpp:380] conv5_2 -> conv5_2
I0601 16:22:28.687377  8514 net.cpp:122] Setting up conv5_2
I0601 16:22:28.687438  8514 net.cpp:129] Top shape: 1 512 41 41 (860672)
I0601 16:22:28.687469  8514 net.cpp:137] Memory required for data: 990840000
I0601 16:22:28.687507  8514 layer_factory.hpp:77] Creating layer relu5_2
I0601 16:22:28.687557  8514 net.cpp:84] Creating Layer relu5_2
I0601 16:22:28.687589  8514 net.cpp:406] relu5_2 <- conv5_2
I0601 16:22:28.687624  8514 net.cpp:367] relu5_2 -> conv5_2 (in-place)
I0601 16:22:28.687660  8514 net.cpp:122] Setting up relu5_2
I0601 16:22:28.687693  8514 net.cpp:129] Top shape: 1 512 41 41 (860672)
I0601 16:22:28.687721  8514 net.cpp:137] Memory required for data: 994282688
I0601 16:22:28.687749  8514 layer_factory.hpp:77] Creating layer conv5_3
I0601 16:22:28.687793  8514 net.cpp:84] Creating Layer conv5_3
I0601 16:22:28.687825  8514 net.cpp:406] conv5_3 <- conv5_2
I0601 16:22:28.687865  8514 net.cpp:380] conv5_3 -> conv5_3
I0601 16:22:28.787257  8514 net.cpp:122] Setting up conv5_3
I0601 16:22:28.804388  8514 net.cpp:129] Top shape: 1 512 41 41 (860672)
I0601 16:22:28.804430  8514 net.cpp:137] Memory required for data: 997725376
I0601 16:22:28.804472  8514 layer_factory.hpp:77] Creating layer relu5_3
I0601 16:22:28.804510  8514 net.cpp:84] Creating Layer relu5_3
I0601 16:22:28.804541  8514 net.cpp:406] relu5_3 <- conv5_3
I0601 16:22:28.804575  8514 net.cpp:367] relu5_3 -> conv5_3 (in-place)
I0601 16:22:28.804610  8514 net.cpp:122] Setting up relu5_3
I0601 16:22:28.804643  8514 net.cpp:129] Top shape: 1 512 41 41 (860672)
I0601 16:22:28.804671  8514 net.cpp:137] Memory required for data: 1001168064
I0601 16:22:28.804698  8514 layer_factory.hpp:77] Creating layer pool5
I0601 16:22:28.804733  8514 net.cpp:84] Creating Layer pool5
I0601 16:22:28.804764  8514 net.cpp:406] pool5 <- conv5_3
I0601 16:22:28.804797  8514 net.cpp:380] pool5 -> pool5
I0601 16:22:28.804880  8514 net.cpp:122] Setting up pool5
I0601 16:22:28.804920  8514 net.cpp:129] Top shape: 1 512 21 21 (225792)
I0601 16:22:28.804949  8514 net.cpp:137] Memory required for data: 1002071232
I0601 16:22:28.804980  8514 layer_factory.hpp:77] Creating layer fc6
I0601 16:22:28.805027  8514 net.cpp:84] Creating Layer fc6
I0601 16:22:28.805058  8514 net.cpp:406] fc6 <- pool5
I0601 16:22:28.805095  8514 net.cpp:380] fc6 -> fc6
I0601 16:22:33.479773  8514 net.cpp:122] Setting up fc6
I0601 16:22:33.479887  8514 net.cpp:129] Top shape: 1 4096 15 15 (921600)
I0601 16:22:33.479921  8514 net.cpp:137] Memory required for data: 1005757632
I0601 16:22:33.479964  8514 layer_factory.hpp:77] Creating layer relu6
I0601 16:22:33.480008  8514 net.cpp:84] Creating Layer relu6
I0601 16:22:33.480043  8514 net.cpp:406] relu6 <- fc6
I0601 16:22:33.480077  8514 net.cpp:367] relu6 -> fc6 (in-place)
I0601 16:22:33.480115  8514 net.cpp:122] Setting up relu6
I0601 16:22:33.480149  8514 net.cpp:129] Top shape: 1 4096 15 15 (921600)
I0601 16:22:33.480176  8514 net.cpp:137] Memory required for data: 1009444032
I0601 16:22:33.480204  8514 layer_factory.hpp:77] Creating layer drop6
I0601 16:22:33.481503  8514 net.cpp:84] Creating Layer drop6
I0601 16:22:33.481554  8514 net.cpp:406] drop6 <- fc6
I0601 16:22:33.481590  8514 net.cpp:367] drop6 -> fc6 (in-place)
I0601 16:22:33.481679  8514 net.cpp:122] Setting up drop6
I0601 16:22:33.481724  8514 net.cpp:129] Top shape: 1 4096 15 15 (921600)
I0601 16:22:33.481755  8514 net.cpp:137] Memory required for data: 1013130432
I0601 16:22:33.481786  8514 layer_factory.hpp:77] Creating layer fc7
I0601 16:22:33.481830  8514 net.cpp:84] Creating Layer fc7
I0601 16:22:33.481861  8514 net.cpp:406] fc7 <- fc6
I0601 16:22:33.481896  8514 net.cpp:380] fc7 -> fc7
I0601 16:22:34.261683  8514 net.cpp:122] Setting up fc7
I0601 16:22:34.261801  8514 net.cpp:129] Top shape: 1 4096 15 15 (921600)
I0601 16:22:34.261834  8514 net.cpp:137] Memory required for data: 1016816832
I0601 16:22:34.261886  8514 layer_factory.hpp:77] Creating layer relu7
I0601 16:22:34.261967  8514 net.cpp:84] Creating Layer relu7
I0601 16:22:34.262009  8514 net.cpp:406] relu7 <- fc7
I0601 16:22:34.262046  8514 net.cpp:367] relu7 -> fc7 (in-place)
I0601 16:22:34.262084  8514 net.cpp:122] Setting up relu7
I0601 16:22:34.262117  8514 net.cpp:129] Top shape: 1 4096 15 15 (921600)
I0601 16:22:34.262145  8514 net.cpp:137] Memory required for data: 1020503232
I0601 16:22:34.262174  8514 layer_factory.hpp:77] Creating layer drop7
I0601 16:22:34.262212  8514 net.cpp:84] Creating Layer drop7
I0601 16:22:34.262243  8514 net.cpp:406] drop7 <- fc7
I0601 16:22:34.262275  8514 net.cpp:367] drop7 -> fc7 (in-place)
I0601 16:22:34.262352  8514 net.cpp:122] Setting up drop7
I0601 16:22:34.262403  8514 net.cpp:129] Top shape: 1 4096 15 15 (921600)
I0601 16:22:34.262437  8514 net.cpp:137] Memory required for data: 1024189632
I0601 16:22:34.262470  8514 layer_factory.hpp:77] Creating layer score_fr
I0601 16:22:34.262514  8514 net.cpp:84] Creating Layer score_fr
I0601 16:22:34.262545  8514 net.cpp:406] score_fr <- fc7
I0601 16:22:34.262584  8514 net.cpp:380] score_fr -> score_fr
I0601 16:22:34.265655  8514 net.cpp:122] Setting up score_fr
I0601 16:22:34.265708  8514 net.cpp:129] Top shape: 1 34 15 15 (7650)
I0601 16:22:34.265739  8514 net.cpp:137] Memory required for data: 1024220232
I0601 16:22:34.265775  8514 layer_factory.hpp:77] Creating layer upscore2
I0601 16:22:34.266505  8514 net.cpp:84] Creating Layer upscore2
I0601 16:22:34.266553  8514 net.cpp:406] upscore2 <- score_fr
I0601 16:22:34.266595  8514 net.cpp:380] upscore2 -> upscore2
I0601 16:22:34.267722  8514 net.cpp:122] Setting up upscore2
I0601 16:22:34.267776  8514 net.cpp:129] Top shape: 1 34 32 32 (34816)
I0601 16:22:34.267807  8514 net.cpp:137] Memory required for data: 1024359496
I0601 16:22:34.267860  8514 layer_factory.hpp:77] Creating layer upscore2_upscore2_0_split
I0601 16:22:34.267899  8514 net.cpp:84] Creating Layer upscore2_upscore2_0_split
I0601 16:22:34.267930  8514 net.cpp:406] upscore2_upscore2_0_split <- upscore2
I0601 16:22:34.267962  8514 net.cpp:380] upscore2_upscore2_0_split -> upscore2_upscore2_0_split_0
I0601 16:22:34.268024  8514 net.cpp:380] upscore2_upscore2_0_split -> upscore2_upscore2_0_split_1
I0601 16:22:34.268106  8514 net.cpp:122] Setting up upscore2_upscore2_0_split
I0601 16:22:34.268151  8514 net.cpp:129] Top shape: 1 34 32 32 (34816)
I0601 16:22:34.268183  8514 net.cpp:129] Top shape: 1 34 32 32 (34816)
I0601 16:22:34.268213  8514 net.cpp:137] Memory required for data: 1024638024
I0601 16:22:34.268240  8514 layer_factory.hpp:77] Creating layer score_pool4
I0601 16:22:34.268286  8514 net.cpp:84] Creating Layer score_pool4
I0601 16:22:34.268318  8514 net.cpp:406] score_pool4 <- pool4_pool4_0_split_1
I0601 16:22:34.268353  8514 net.cpp:380] score_pool4 -> score_pool4
I0601 16:22:34.268931  8514 net.cpp:122] Setting up score_pool4
I0601 16:22:34.268978  8514 net.cpp:129] Top shape: 1 34 41 41 (57154)
I0601 16:22:34.269008  8514 net.cpp:137] Memory required for data: 1024866640
I0601 16:22:34.269045  8514 layer_factory.hpp:77] Creating layer score_pool4c
I0601 16:22:34.269652  8514 net.cpp:84] Creating Layer score_pool4c
I0601 16:22:34.269701  8514 net.cpp:406] score_pool4c <- score_pool4
I0601 16:22:34.269735  8514 net.cpp:406] score_pool4c <- upscore2_upscore2_0_split_0
I0601 16:22:34.269770  8514 net.cpp:380] score_pool4c -> score_pool4c
I0601 16:22:34.269898  8514 net.cpp:122] Setting up score_pool4c
I0601 16:22:34.269946  8514 net.cpp:129] Top shape: 1 34 32 32 (34816)
I0601 16:22:34.269978  8514 net.cpp:137] Memory required for data: 1025005904
I0601 16:22:34.270006  8514 layer_factory.hpp:77] Creating layer fuse_pool4
I0601 16:22:34.270069  8514 net.cpp:84] Creating Layer fuse_pool4
I0601 16:22:34.270107  8514 net.cpp:406] fuse_pool4 <- upscore2_upscore2_0_split_1
I0601 16:22:34.270139  8514 net.cpp:406] fuse_pool4 <- score_pool4c
I0601 16:22:34.270175  8514 net.cpp:380] fuse_pool4 -> fuse_pool4
I0601 16:22:34.270300  8514 net.cpp:122] Setting up fuse_pool4
I0601 16:22:34.270347  8514 net.cpp:129] Top shape: 1 34 32 32 (34816)
I0601 16:22:34.270383  8514 net.cpp:137] Memory required for data: 1025145168
I0601 16:22:34.270416  8514 layer_factory.hpp:77] Creating layer upscore_pool4
I0601 16:22:34.270454  8514 net.cpp:84] Creating Layer upscore_pool4
I0601 16:22:34.270486  8514 net.cpp:406] upscore_pool4 <- fuse_pool4
I0601 16:22:34.270524  8514 net.cpp:380] upscore_pool4 -> upscore_pool4
I0601 16:22:34.271044  8514 net.cpp:122] Setting up upscore_pool4
I0601 16:22:34.279384  8514 net.cpp:129] Top shape: 1 34 66 66 (148104)
I0601 16:22:34.279423  8514 net.cpp:137] Memory required for data: 1025737584
I0601 16:22:34.279459  8514 layer_factory.hpp:77] Creating layer upscore_pool4_upscore_pool4_0_split
I0601 16:22:34.279494  8514 net.cpp:84] Creating Layer upscore_pool4_upscore_pool4_0_split
I0601 16:22:34.279523  8514 net.cpp:406] upscore_pool4_upscore_pool4_0_split <- upscore_pool4
I0601 16:22:34.279556  8514 net.cpp:380] upscore_pool4_upscore_pool4_0_split -> upscore_pool4_upscore_pool4_0_split_0
I0601 16:22:34.279592  8514 net.cpp:380] upscore_pool4_upscore_pool4_0_split -> upscore_pool4_upscore_pool4_0_split_1
I0601 16:22:34.279681  8514 net.cpp:122] Setting up upscore_pool4_upscore_pool4_0_split
I0601 16:22:34.288384  8514 net.cpp:129] Top shape: 1 34 66 66 (148104)
I0601 16:22:34.288424  8514 net.cpp:129] Top shape: 1 34 66 66 (148104)
I0601 16:22:34.288455  8514 net.cpp:137] Memory required for data: 1026922416
I0601 16:22:34.288483  8514 layer_factory.hpp:77] Creating layer score_pool3
I0601 16:22:34.288529  8514 net.cpp:84] Creating Layer score_pool3
I0601 16:22:34.288561  8514 net.cpp:406] score_pool3 <- pool3_pool3_0_split_1
I0601 16:22:34.288597  8514 net.cpp:380] score_pool3 -> score_pool3
I0601 16:22:34.289093  8514 net.cpp:122] Setting up score_pool3
I0601 16:22:34.289139  8514 net.cpp:129] Top shape: 1 34 82 82 (228616)
I0601 16:22:34.289168  8514 net.cpp:137] Memory required for data: 1027836880
I0601 16:22:34.289203  8514 layer_factory.hpp:77] Creating layer score_pool3c
I0601 16:22:34.289238  8514 net.cpp:84] Creating Layer score_pool3c
I0601 16:22:34.289268  8514 net.cpp:406] score_pool3c <- score_pool3
I0601 16:22:34.289299  8514 net.cpp:406] score_pool3c <- upscore_pool4_upscore_pool4_0_split_0
I0601 16:22:34.289333  8514 net.cpp:380] score_pool3c -> score_pool3c
I0601 16:22:34.289402  8514 net.cpp:122] Setting up score_pool3c
I0601 16:22:34.289443  8514 net.cpp:129] Top shape: 1 34 66 66 (148104)
I0601 16:22:34.289472  8514 net.cpp:137] Memory required for data: 1028429296
I0601 16:22:34.289501  8514 layer_factory.hpp:77] Creating layer fuse_pool3
I0601 16:22:34.289535  8514 net.cpp:84] Creating Layer fuse_pool3
I0601 16:22:34.289566  8514 net.cpp:406] fuse_pool3 <- upscore_pool4_upscore_pool4_0_split_1
I0601 16:22:34.289597  8514 net.cpp:406] fuse_pool3 <- score_pool3c
I0601 16:22:34.289629  8514 net.cpp:380] fuse_pool3 -> fuse_pool3
I0601 16:22:34.289690  8514 net.cpp:122] Setting up fuse_pool3
I0601 16:22:34.289726  8514 net.cpp:129] Top shape: 1 34 66 66 (148104)
I0601 16:22:34.289755  8514 net.cpp:137] Memory required for data: 1029021712
I0601 16:22:34.289783  8514 layer_factory.hpp:77] Creating layer upscore8
I0601 16:22:34.289820  8514 net.cpp:84] Creating Layer upscore8
I0601 16:22:34.289850  8514 net.cpp:406] upscore8 <- fuse_pool3
I0601 16:22:34.289883  8514 net.cpp:380] upscore8 -> upscore8
I0601 16:22:34.294742  8514 net.cpp:122] Setting up upscore8
I0601 16:22:34.294795  8514 net.cpp:129] Top shape: 1 34 536 536 (9768064)
I0601 16:22:34.294827  8514 net.cpp:137] Memory required for data: 1068093968
I0601 16:22:34.294859  8514 layer_factory.hpp:77] Creating layer score
I0601 16:22:34.294895  8514 net.cpp:84] Creating Layer score
I0601 16:22:34.294926  8514 net.cpp:406] score <- upscore8
I0601 16:22:34.294958  8514 net.cpp:406] score <- data_data_0_split_1
I0601 16:22:34.294991  8514 net.cpp:380] score -> score
I0601 16:22:34.295055  8514 net.cpp:122] Setting up score
I0601 16:22:34.295092  8514 net.cpp:129] Top shape: 1 34 454 454 (7007944)
I0601 16:22:34.295121  8514 net.cpp:137] Memory required for data: 1096125744
I0601 16:22:34.295150  8514 layer_factory.hpp:77] Creating layer score_score_0_split
I0601 16:22:34.295182  8514 net.cpp:84] Creating Layer score_score_0_split
I0601 16:22:34.295214  8514 net.cpp:406] score_score_0_split <- score
I0601 16:22:34.295246  8514 net.cpp:380] score_score_0_split -> score_score_0_split_0
I0601 16:22:34.295282  8514 net.cpp:380] score_score_0_split -> score_score_0_split_1
I0601 16:22:34.295361  8514 net.cpp:122] Setting up score_score_0_split
I0601 16:22:34.295406  8514 net.cpp:129] Top shape: 1 34 454 454 (7007944)
I0601 16:22:34.295439  8514 net.cpp:129] Top shape: 1 34 454 454 (7007944)
I0601 16:22:34.295467  8514 net.cpp:137] Memory required for data: 1152189296
I0601 16:22:34.295495  8514 layer_factory.hpp:77] Creating layer loss
I0601 16:22:34.295563  8514 net.cpp:84] Creating Layer loss
I0601 16:22:34.295601  8514 net.cpp:406] loss <- score_score_0_split_0
I0601 16:22:34.295635  8514 net.cpp:406] loss <- label_data_1_split_0
I0601 16:22:34.295670  8514 net.cpp:380] loss -> loss
…
